notebooks/unh_15epochs_model_state.pt (torch_old, 2761 bytes, 10 tensors)

_lstm1.weight_ih_l0 f8 [4, 5]
000000 60 6b 4e 52 d3 b2 ec bf b5 6b 4e a1 2d 46 e0 bf
       -0.8968292815728596 -0.5085666800035741
000010 ac 61 90 02 2a 2f bd 3f e6 58 fd 12 80 fa d4 bf
       0.11400091707799359 -0.3277893243261033
000020 34 73 52 9f e0 47 b4 3f a5 08 76 53 d3 47 df bf
       0.07922176255892738 -0.48875888014311847
000030 21 c9 bd d6 f9 f3 e1 3f d7 5a fe 0e 50 74 ee bf
       0.5610322183768269 -0.9516983311503634
000040 dc 9d aa 76 f7 e0 ed 3f d7 aa 71 65 c0 dd e6 3f
       0.9337117498116032 0.7145692807510738
000050 a2 74 d8 9b 33 6c db bf b5 c6 73 63 9e bf ee bf
       -0.4284791013649941 -0.9608909552027486
000060 c8 37 22 2b ac 35 eb 3f 6c 61 8a a9 d8 5b e0 bf
       0.8503018228964203 -0.5112117110575531
000070 2f 04 60 26 a0 77 bc bf 8d 6a 19 8d e1 3c cb bf
       -0.11120034157649238 -0.21279544248212226
000080 16 26 29 a3 d3 03 d6 bf 76 2d 01 72 84 01 c0 bf
       -0.34398356374421846 -0.12504630629187446
000090 06 9b 9d 9e 0d 48 cf bf 9f 0c d7 e7 20 dd ef 3f
       -0.2443863892069304 0.9957432296872816

_lstm1.weight_hh_l0 f8 [4, 1]
000000 ef 9c db 61 59 c7 c2 bf 4f 09 bb 95 40 98 b4 bf
       -0.14670865324226365 -0.08044818549664011
000010 08 c1 9c c3 81 dd e9 bf b7 bc f2 7e 5a fe c4 bf
       -0.808289415412248 -0.1640122527946681

_lstm1.bias_ih_l0 f8 [4]
000000 30 9a be f2 67 64 8c 3f 52 65 a5 9a 40 9e e9 bf
       0.013863384337878676 -0.8005679150038907
000010 bb a2 65 33 9c 7a db 3f f9 18 6d 9b 49 68 e8 3f
       0.42935853022803955 0.7627304111163361

_lstm1.bias_hh_l0 f8 [4]
000000 6f fa ca 1f 2d 1a e4 3f 52 65 a5 1a e2 6a e5 bf
       0.62819534501598 -0.6692972679549405
000010 82 d5 a5 c9 dc 4a 93 bf f9 18 6d 9b 63 83 e7 3f
       -0.01884026509056503 0.7347887073199494

_lstm2.weight_ih_l0 f8 [4, 1]
000000 7c 83 b9 2e 9c bb d5 bf ef 06 75 72 bc 53 c0 bf
       -0.33957581103282286 -0.12755542362906833
000010 65 f9 fd 99 fa f9 d8 bf 3a 3b 0b 25 13 3b e6 bf
       -0.39025750196733205 -0.6947112773430952

_lstm2.weight_hh_l0 f8 [4, 1]
000000 a8 6e 0b fa 46 cc ef 3f a5 a0 90 d7 4e eb d3 bf
       0.9936861880955421 -0.3112370591284253
000010 6a 4c 33 d4 06 79 e6 bf f5 61 04 44 58 73 ee 3f
       -0.7022737640894665 0.95158017429918

_lstm2.bias_ih_l0 f8 [4]
000000 5b 55 93 16 bc 32 e8 3f a4 75 4f c8 2a d9 df bf
       0.7561932030609272 -0.4976298290401593
000010 0c 8c fd 4e 24 34 e9 bf 12 eb c0 f4 55 c1 db bf
       -0.7876149695188146 -0.4336752786800143

_lstm2.bias_hh_l0 f8 [4]
000000 d0 54 65 4b b5 8b b7 bf 37 45 d8 db 24 9d ed 3f
       -0.0919755276748504 0.925432614693057
000010 f9 73 02 71 37 1e e3 3f 90 75 60 fa 20 d9 ec bf
       0.5974385459154511 -0.9015049829646831

_fc_1.weight f8 [1, 100]
000000 d0 34 ae 06 70 24 77 3f 23 eb ff e5 6f ba ba bf
       0.005649983980118026 -0.10440730443216899
000010 50 ad 5f 52 7d 5b 9e bf ab 47 eb 81 b1 67 79 3f
       -0.029645879891103732 0.006202405346543853
000020 d4 80 80 56 f1 6f b4 3f 73 0d c1 b7 29 74 9c bf
       0.07983311044563673 -0.02778687652631846
000030 0c 27 d7 b6 62 80 b6 3f f6 1e 01 18 0d 77 b0 bf
       0.08789650882604522 -0.06431657634777452
000040 a4 4d 8a 42 ae 01 b2 bf cf 9d f7 6d 97 78 a7 3f
       -0.070338145489862 0.04584191529630354
000050 e7 02 2a 78 4c 05 b9 bf 00 c9 bc eb 1a 60 89 3f
       -0.09773710187620176 0.012390337294708065
000060 5a e3 a5 1a 9f a6 b5 3f 44 d4 e9 a3 b8 b7 91 3f
       0.08457369232736536 0.017302403454284368
000070 20 fb b3 37 84 ce a1 bf 0d 68 ea 02 3b ad 9a 3f
       -0.03477872066468124 0.02605144696517674
000080 e1 8a ca ea fc b5 95 3f ff ad 10 ac 8f de b3 bf
       0.02120204146434446 -0.07761476469811866
000090 7b 08 72 95 36 96 9d bf dd a7 80 d3 47 1e b4 3f
       -0.028893330451417825 0.07858704484593156
0000a0 dd 9f 62 dd 3a 43 98 3f 76 b1 4b d2 76 16 ad bf
       0.023693961870463787 -0.05681201283536812
0000b0 06 79 0d 16 70 a6 a5 bf c8 e8 ba 7c 49 86 a2 3f
       -0.0422854449195587 0.03618077895721822
0000c0 a3 7e 6c 5b 45 89 a0 3f f5 19 52 e1 57 dc a3 3f
       0.03229729405415795 0.03879046082970553
0000d0 bf 12 1b 72 c3 9f a1 3f c2 b0 96 72 ff ca ab bf
       0.03442202346699252 -0.05428312562739414
0000e0 2b 31 27 71 09 26 a1 bf 15 be ae 2f 46 56 9e 3f
       -0.03349332338584284 0.02962598482161923
0000f0 04 f2 99 5e 5c e2 a7 bf 14 a8 17 70 99 07 b8 bf
       -0.04664887099076867 -0.09386595713263574
000100 a9 95 f3 5b ba 00 98 3f a7 97 b7 ae 7d 62 b7 bf
       0.023440276968263927 -0.09134660258823023
000110 62 42 d7 5f 6b 47 a0 bf b5 e1 50 e6 f3 63 b5 bf
       -0.03179488701755841 -0.08355640767047741
000120 34 49 a7 9b e6 82 b7 3f f6 f4 f0 e4 15 6d aa 3f
       0.09184113788731879 0.05161350650494427
000130 71 91 87 ec 2a e2 ab bf 4c 69 55 b8 63 ad 83 bf
       -0.05445989739726798 -0.009608058035770604
000140 a8 fa d8 2d 1f bc a4 bf 27 cf 37 96 d4 f0 a1 bf
       -0.040497755381229184 -0.035040515267523546
000150 be ef 93 a5 5a 33 a6 3f 65 b8 d6 5f 0f d0 a0 bf
       0.04336055060591047 -0.03283737225443487
000160 08 94 4a 34 ae 8a ad 3f 54 ea 17 40 44 fe b4 3f
       0.057698673136918954 0.0820048004606318
000170 ec 2a d1 ac 65 08 7f bf 4e 00 2f ea 13 66 7e 3f
       -0.007576367538670619 0.00742156771860898
000180 41 65 25 1f b6 b5 a4 bf ac 9a f0 62 fd 9d b0 bf
       -0.0404488480587113 -0.06491073289417199
000190 05 87 90 6e 07 62 92 3f ee d7 a5 33 9e d8 96 3f
       0.017952076075864038 0.022310706999142775
0001a0 fe 1f 75 c6 58 3a ba bf db 4b 26 01 d0 f2 9e bf
       -0.10245280118135722 -0.030223131246724804
0001b0 c1 27 56 92 2a e6 ac 3f d4 f3 c9 09 2f 0e 93 bf
       0.05644352947554366 -0.01860879418608248
0001c0 17 0c f7 ad 4e d1 86 3f 50 f5 04 5f 09 80 af bf
       0.01114140957259306 -0.061523716782611815
0001d0 d9 40 43 82 10 c3 a1 3f f4 ce f7 51 c5 7b 82 3f
       0.034691348935327056 0.009025136531796353
0001e0 fe ec 43 02 55 b3 b9 bf 48 84 80 04 cc cd ba bf
       -0.1003926401644328 -0.10470271215355453
0001f0 4e d0 bf 41 55 58 af bf fc 44 9d ba 6c cb b3 3f
       -0.06122080257037564 0.07732276493085871
000200 a9 64 de 3f 82 74 b1 bf 1b 8e 0f 11 a1 2c bb bf
       -0.06818403300566679 -0.10614973703882706
000210 4f f6 33 22 df 5f a3 bf 4e 00 9b 2c 92 f1 9c bf
       -0.037840817380111795 -0.028265270206930197
000220 2c 47 88 c2 37 65 a3 3f e6 34 8f 89 71 db b2 3f
       0.037881605621932074 0.07366094215759098
000230 2a 82 80 b7 25 f5 b2 3f 63 20 52 3d 22 19 b1 bf
       0.07405315141705474 -0.06678976056184775
000240 bf 18 43 ce c8 18 5b bf 43 99 b1 c9 b2 5a a6 bf
       -0.0016538582795404958 -0.043660723801439726
000250 ee 2b 30 1e 39 f7 b8 bf 1e ca fe e7 f2 55 86 3f
       -0.09752232539192082 0.010906121926244568
000260 b6 ab 81 bc f5 b2 a3 3f e8 cd c2 c6 70 22 ae bf
       0.03847473074059542 -0.05885651041299039
000270 4a ab 34 bb e9 79 b6 bf f5 38 94 69 4c 63 ac 3f
       -0.0877977449460278 0.05544508732610779
000280 d0 7e 76 d7 e3 21 97 3f fc 35 d8 d6 d8 21 bb bf
       0.02259021761494645 -0.10598521466473437
000290 77 c0 96 c5 0c 50 ad 3f 56 98 52 c9 5c af b0 3f
       0.05725135719274104 0.06517581858733598
0002a0 8b 10 d6 f3 f4 00 b0 bf 58 d9 f8 25 36 c3 b4 bf
       -0.06251460030586224 -0.08110369135906603
0002b0 f2 a8 5c ac ae 91 a7 3f 5d 94 cb 31 74 8e a2 bf
       0.04603334287669893 -0.0362430868897625
0002c0 d7 ab 93 dc b8 06 b0 3f a1 cb 11 c4 53 7a 8e bf
       0.0626025713460615 -0.014881758137766545
0002d0 18 b0 57 b1 cd ad 72 3f 1c c1 31 74 02 48 5d 3f
       0.0045602831719229395 0.001787187954303055
0002e0 3c 16 74 67 ac fa b7 bf 23 5b 15 17 db 19 a2 bf
       -0.09366872335166304 -0.03535351425914814
0002f0 92 3e f1 42 96 d8 90 3f 70 79 e0 6c 78 15 99 3f
       0.016451213680112327 0.024495965619388327
000300 fa ad 2d ad d0 0f a8 3f f3 96 cf 03 b7 d9 83 3f
       0.04699565996164874 0.009692601970481251
000310 c3 1e 5e bf a0 5c b1 bf 72 73 34 ce 1a 89 54 3f
       -0.06781963989316879 0.0012533914348928613

_fc_1.bias f8 [1]
000000 05 fc 55 79 2a 8e db 3f
       0.4305521187706634
