notebooks/unh_200epochs_model_state.pt (torch_old, 925932 bytes, 14 tensors)

_lstm1.weight_ih_l0 f8 [256, 5]
0	0x3fbc23713b308c8a	0.10991580672321014
1	0xbfa6c200432e8666	-0.04444886036004618
2	0xbfbcde7fe8101ce2	-0.11277007499312533
3	0x3fbb0c49735d1832	0.10565623346801159
4	0xbf9e8a79d3833ca9	-0.029825118574816987
5	0x3fb1926fc271de82	0.06864069459140335
6	0xbfb70e3a517d8d8b	-0.09006084908974381
7	0x3fbf888ae11caae3	0.12317722316644679
8	0xbfbacb3d227063fa	-0.10466367808147928
9	0xbf5db6924cf604c3	-0.0018135479657249022
10	0xbf859829377ab95d	-0.010544130330654761
11	0x3fb627b8ef963168	0.08654361581119974
12	0xbfb30c4b0db04be4	-0.07440632900424721
13	0xbf9c0fc1adbbfe2e	-0.02740385649576476
14	0xbfb309399b74f1fb	-0.07435951276142554
15	0xbf870877431f259f	-0.011246616111651174
16	0xbf96b2013b44b845	-0.022163409464319512
17	0xbfbfd668a65639a1	-0.12436536847073977
18	0x3f8ae3446942c293	0.013128790342620966
19	0x3fa863e5e1224030	0.04763716099944337
20	0xbfb800a785b786f1	-0.09375998510907003
21	0x3fb9913d52a85675	0.09987242954260885
22	0xbf88e8c0da0cee8c	-0.012162691740392327
23	0xbfb90717ac00f089	-0.0977644724779926
24	0x3fa0a333ff061ca3	0.03249514091572194
25	0x3faae65c67c08c56	0.052538764634186094
26	0x3fbdd34f8ef21970	0.11650559654126424
27	0x3fb7e779d53c2bb0	0.09337579208310731
28	0x3fb9825e32b33a72	0.09964550721927326
29	0xbfacb4f1fa082a7e	-0.05606800248286435
30	0xbf9a0a8e0a500959	-0.025430888537820582
31	0xbfa4e75c9ed964f3	-0.040827650442858764
32	0x3f9564bcf87e5d56	0.020892098109098832
33	0xbfb62f680da6d760	-0.0866608651475338
34	0xbf9cf9ae1d11a13f	-0.02829620411321909
35	0xbfa77b7be20d9de5	-0.04586398252905236
36	0x3fb219f788a1fde4	0.0707087238861202
37	0x3fb88b687ce18f8d	0.09587719963889026
38	0xbf9c95a25c032a1f	-0.027914559236515864
39	0xbfbd1f22ef7153e9	-0.1137563547684547
40	0x3fb0cca4caee3a2b	0.06562261537894958
41	0xbf9ff4612603dfd5	-0.031205671258220342
42	0xbfb0ca41d9e8e4a1	-0.0655862004286001
43	0x3f9bcefc4e68c470	0.027156774793358485
44	0xbfb02bbac2b9c5bf	-0.06316725973171965
45	0xbf75afcbee581d94	-0.005294605832666294
46	0x3fb69768f90f3765	0.08824783402016363
47	0x3fa234bfac701cce	0.035558690833619275
48	0x3fb03ce19d298a1d	0.06342897498101548
49	0x3fb2eaa0ced054d7	0.07389264153637796
50	0x3fbb7ce955198d85	0.10737474753982752
51	0xbfae0d5703abe775	-0.05869552535837289
52	0x3f85966d2c503937	0.010540821947895835
53	0xbfb9a6eea9f0652c	-0.10020343445684848
54	0xbfb808d2034394d2	-0.09388458804785962
55	0xbfb19a5fe35ab8e0	-0.0687618188919461
56	0xbf9c7d0930d23abd	-0.027820724110422235
57	0x3fb1a6a69adbf787	0.06894913941138557
58	0x3fbdf65a1e0594c3	0.11704028351740008
59	0x3f920e69ed306593	0.017633109189863893
60	0xbf80755be60859b9	-0.008036344487703727
61	0x3fa093e4838d0e7d	0.03237833124015042
62	0xbfb765db321f5bbe	-0.09139795278257076
63	0x3fa4c708e3df0783	0.04058101445799791
64	0xbfb182796af5350c	-0.06839712964320571
65	0xbfb1f6e5b3fe5755	-0.0701736034810357
66	0x3fb7422232cda704	0.09085286846461932
67	0xbfb263a7ee20e62c	-0.07183312953647975
68	0x3fb8e48240e49363	0.09723676761912041
69	0x3fb40dc4aa1cb6cb	0.07833508637551316
70	0xbfa0416e5d468d17	-0.03174919975870177
71	0x3f994a299630463d	0.024696969787390655
72	0xbfa3928fdb08803b	-0.03822755383248518
73	0xbfb7bdcee8a6c7a1	-0.0927399938580309
74	0xbfb35d4c7aea5ce2	-0.0756423759543057
75	0xbfafddad8bed8b63	-0.06223814328293178
76	0x3fbfe457430a01b1	0.12457795511909954
77	0x3fbc39b0cc5caae3	0.1102552889757749
78	0xbfa3c7479060b526	-0.03862975728439215
79	0xbfb0f5eabc4efd20	-0.06625239465119082
80	0x3f97956f18fc1636	0.023030982875772398
81	0x3fb21a09a677ac72	0.07070980371615734
82	0x3fb831d47a9e75df	0.09451034539821233
83	0x3fa7335ffeb8a8f5	0.045313834995185966
84	0xbfbedb06291d3e85	-0.12052954200521
85	0x3fbf6e4e3addd917	0.1227768796651144
86	0x3fb295f09b4fedbb	0.07260040084650303
87	0x3fbb3b47d8373407	0.10637330082609263
88	0x3fbfd8a37b6864d1	0.12439939272771318
89	0x3fbb6153e58636db	0.10695385316486343
90	0x3f8c3f3298b97904	0.01379241493776507
91	0xbfa7b3b8ecaf49df	-0.046293047802141045
92	0x3fb1ea09b66460c9	0.06997738554889844
93	0xbfb1c0a9b5164135	-0.06934605284755409
94	0xbf97190e039649bb	-0.02255651375669186
95	0xbfa7579db95b9e24	-0.04559033286733108
96	0x3fa8d7e0fe2a85fe	0.048522025133262744
97	0x3fb49017cb77c5ec	0.08032368390538352
98	0x3fb169827f69300c	0.06801620112054269
99	0xbf9c851376f8efba	-0.027851394783496387
100	0xbf801dfb069998eb	-0.007869683398166369
101	0xbfb7619c9173dece	-0.09133318472947424
102	0x3faf2a996ae2ee66	0.06087188176885831
103	0xbfa7db4a6a0adc22	-0.04659493011916306
104	0xbfb57ad8ce5a5b24	-0.0839057449141874
105	0x3fbe8f64fb2bfbdb	0.11937552578090964
106	0x3fb3f21bed63b309	0.07791304155007252
107	0x3f972b6604ab2866	0.02262648967261107
108	0xbf9dad8fd624b03d	-0.028982398457785264
109	0x3fb8ba0f1ded2dec	0.09658903580309869
110	0x3fbaaa1346f868a4	0.10415764315294723
111	0x3fb11d705bdcc9f9	0.0668554519914223
112	0x3f8a739d23bb801e	0.012915828373877555
113	0xbfb83c52ed83c686	-0.09467047022533323
114	0xbfad52c06336d1d6	-0.0572719689475069
115	0x3f9f4a1aaba1f144	0.030556122518178755
116	0xbfa9fa9c56329760	-0.05074013282982892
117	0x3fb600c0bbfb80e8	0.08594898785986838
118	0xbfbeb3f670d5412a	-0.11993351225578822
119	0x3f83d382ee36104b	0.009680769819859011
120	0x3fb62f8b4e997fdc	0.08666296643195842
121	0xbfb2d804dca5ae2a	-0.07360868822950609
122	0x3fbc6b4cf024dab4	0.1110122762955637
123	0xbf83ed27390910b8	-0.009729677608568785
124	0xbfb0468c58890a3d	-0.06357648049837734
125	0x3fbe7e8cc68b8573	0.11911849829950487
126	0xbf9944ad22f29569	-0.02467604184916664
127	0xbf8dc73454e14ae2	-0.014540108528455279
128	0x3fb730d40b02b6dc	0.0905888106232981
129	0x3f90de070bb08277	0.01647196778151502
130	0x3faa0151e239fa46	0.05079131971887256
131	0x3fbef5fb7f2fb9e9	0.1209408936990496
132	0xbf86cb8a15edbaab	-0.01113040809079043
133	0x3fa61900b3fdb4e8	0.04315950581699629
134	0xbfa37008d7b8525a	-0.03796413071919309
135	0x3fb7fa4e7748c5f6	0.09366312420095099
136	0x3fb436c139a707e5	0.078960491729077
137	0xbfad5905cd24af4d	-0.057319814006716464
138	0xbfb24775c41e6d19	-0.07140289342935481
139	0xbfabfcad45f013b7	-0.05466214636547966
140	0x3fbabec83990920c	0.10447360425366287
141	0x3fb55e3cbe098865	0.08346919669705384
142	0xbfb135c13e88ed17	-0.06722648407678765
143	0xbf996b5c7d289b54	-0.02482361329944223
144	0x3f8d28da9abd719c	0.014238078925409785
145	0xbfb12a6a1f504974	-0.06705344452374168
146	0x3f95a1e79781abd9	0.021125429746842037
147	0x3fbafaf929c5d07e	0.10539204854814163
148	0xbfb8967731f9ea99	-0.09604592294810245
149	0x3fb4061ba729d8b3	0.07821820098056058
150	0xbfb18ed5c4d285dc	-0.06858573966248777
151	0x3f84a7cc3b8e4354	0.010085673873420888
152	0x3fad0f4bcc3a46a0	0.05675732486737428
153	0x3fa4c20664be9304	0.04054279308119216
154	0xbfb0279b307bac24	-0.063104342781728
155	0xbfba0a3df222ddef	-0.10171878015068335
156	0xbfbe1e04bcbd565c	-0.11764554603481642
157	0xbfb8d524987db72f	-0.09700230334211989
158	0xbfbb8e44c74f0489	-0.10763959756788401
159	0xbfa25dd17363ede9	-0.03587202580998989
160	0xbfaffcfcfbaa77ef	-0.06247702190488257
161	0xbf9bcbbd2636cbec	-0.027144389588737924
162	0x3faaa0c14c547a2b	0.052007713859201075
163	0x3fa88fd730ded2b7	0.04797241660654577
164	0x3fb6f9539d75debe	0.08974192232369213
165	0x3fbd22b03e80cf8b	0.11381055379825804
166	0x3f71c5c44d41113d	0.004338995746426652
167	0x3fa9fb3911d70bd1	0.05074480383657199
168	0xbfbab099ddd4a6f0	-0.10425721803462884
169	0xbfa1db824d70223d	-0.034877845719226454
170	0xbfb349d3dfd9e444	-0.07534527030101495
171	0x3fa4112d97ad67b0	0.03919355846910777
172	0xbfb5fb7c333154b9	-0.08586860894986871
173	0xbfb80407cb85a6b9	-0.0938114997749392
174	0xbfb839ff22d3f75a	-0.09463495827000426
175	0xbfb47529b9ad5e7f	-0.07991276534209567
176	0xbfb6b2262a21e4d3	-0.08865583923933977
177	0xbfa4f7ca0c2bb6af	-0.040952981935203574
178	0x3fb30e77f36dc3fa	0.07443952267728085
179	0xbfb2e676c64913bb	-0.07382910099938915
180	0xbfae2ee109ca1a4a	-0.05895140881061829
181	0x3f9bb9c3d65386b2	0.02707582469600451
182	0xbfb908e843cd67e7	-0.09779216437655656
183	0xbfb45a31f3e3bbbc	-0.07950126842818767
184	0xbfbd2584fb44efc1	-0.11385375151161183
185	0xbfbdb0d979e3a331	-0.11597975946245921
186	0x3fb97539788211a8	0.09944495384303897
187	0xbfad0919f8b0d755	-0.056710063560258796
188	0xbfb4f6a8b0d7e1e8	-0.08188871686423449
189	0xbfbfef0f8f2cb4e0	-0.12474152799105154
190	0xbfb34e4ff281467b	-0.07541370077640323
191	0xbfbd23b1dd4f0e83	-0.11382590916678663
192	0xbfb1a5c404c09a97	-0.06893563381218325
193	0x3fb846af5dc7e7ef	0.09482856788227399
194	0xbfbec26fc447a560	-0.12015436689366288
195	0xbf9acf778c13901a	-0.02618204872568706
196	0xbfbf8c5121ffbb6a	-0.12323481636097502
197	0x3f55aadb359737b9	0.0013224735943029155
198	0xbfbb80b4ab4c1499	-0.10743264371929441
199	0xbfb95918be85c6f2	-0.099015757097529
200	0xbfa45dc6304d7603	-0.03977794017439964
201	0xbf8a72665aa7b581	-0.012913512841772558
202	0x3fbc1eb08b97d619	0.10984328659090926
203	0xbfbbcefac5562073	-0.10862700765403747
204	0xbfb69e5d68a8e474	-0.08835395627183279
205	0x3fb86b173a0c1138	0.09538407485166978
206	0xbf8dac0dba301518	-0.01448832249117031
207	0x3f8c9697dded63b9	0.013959108791526608
208	0xbfb74fd3535cc7d4	-0.09106179032531198
209	0x3f8446228e969680	0.009899396873900956
210	0xbfae62b7768931a9	-0.059346898288456025
211	0x3fba7255552f56ca	0.1033070881815902
212	0xbfb50d12732d0795	-0.08223071395789668
213	0x3fb7bf7fd495b9ea	0.09276579799709564
214	0x3f9a8a3db20e2554	0.025917972557669103
215	0x3fae044aaf3dd25b	0.058626493350776264
216	0x3fbfe2b6b17ecf3e	0.12455312569983065
217	0x3fbe397d84866070	0.11806473241301929
218	0x3f8f9a42ccc8cd60	0.015430948137782508
219	0xbfbd94a415f94eab	-0.11554933105918035
220	0xbf900e7e7f5cc787	-0.015680290721497705
221	0xbfb65b49b95d91f4	-0.08733044410252672
222	0x3fb6eea03cb0c031	0.08957864267063155
223	0x3fad0fe5ea5a6053	0.05676191793207921
224	0x3fb93f9ddb030aa3	0.09862696263284447
225	0xbfbb202fe7e0d584	-0.1059598866566685
226	0xbf8229f62528b711	-0.008869097718242654
227	0x3fa57c5fad56ec9a	0.04196452132188107
228	0x3f9cc8c5b5e08546	0.028109635568516887
229	0x3fafa40e2385ab3e	0.06179851707096028
230	0x3f9084407349324f	0.016129500423902873
231	0xbfbfbd64a5c40b9f	-0.12398366019264849
232	0xbfa35e65898a8fb8	-0.03782956413240818
233	0x3faa647840ddaaa1	0.05154777328319438
234	0x3f9d97fdfb39f8fa	0.028900116404195743
235	0x3fb93b3581ef91f9	0.09855970785390146
236	0xbf94e007beb8c4d8	-0.02038585759709552
237	0xbfb2b1db6f8c855c	-0.0730263850532728
238	0xbfbdfa7e6b7c16e7	-0.11710348247660428
239	0x3fb22a3a6e7a1152	0.07095685193241266
240	0x3f680ad6b93da90b	0.002934855825448617
241	0x3fbd9fddd7801287	0.11572062026250239
242	0xbf8eeba914451462	-0.01509792416676187
243	0x3fa10b8f1d29e910	0.03329131346704817
244	0x3fb8e6e99fc9f357	0.09727344657035296
245	0xbfaa44e02ea17c2b	-0.05130672997687954
246	0x3fbf24ac0ceae332	0.12165332141274801
247	0xbfb215cef1d0c1b7	-0.07064526942918446
248	0x3f9a93c27b197fa4	0.025954283488658483
249	0xbf9f987b9333fd0a	-0.0308551128955488
250	0xbf96d5a742b64c3a	-0.02229939789465283
251	0x3fa8514445dfd857	0.047495015649403775
252	0x3f55688cd3b0553c	0.0013066649687563789
253	0xbfbda4731fa5367e	-0.11579055330840934
254	0x3fa5e869713802ab	0.042788786955502665
255	0xbfbc4ac4d990c78c	-0.11051588355692682

_lstm1.weight_hh_l0 f8 [256, 64]
0	0xbfa0e8256ccf3477	-0.033021134884259
1	0x3f7d4006d5be3c33	0.007141138743363351
2	0xbfab47e2467f7742	-0.053282805543615655
3	0x3fbe0b9bc84f7b60	0.11736463203804481
4	0xbfa981bb46cf7c9a	-0.049817898172244315
5	0x3f8066e7ea5537f1	0.008008777464649315
6	0xbfa66cd3bcd0a461	-0.04379903488035875
7	0x3f644eb22786f8ba	0.002478931386774877
8	0x3fb022379e4e2bae	0.06302211394192511
9	0xbf94fe9c99b324fc	-0.020502516633119847
10	0xbf8576dd0ff96595	-0.010480620431894386
11	0x3fbe2bef361c64aa	0.11785788603846706
12	0xbf912fb4f939ce2c	-0.016783549987350252
13	0x3fb33dbe4bb77054	0.0751608786444547
14	0xbf5428716734b89b	-0.0012303454830760233
15	0x3fbad6e67c8e7498	0.10484161892823562
16	0xbfb96a10742c3ac4	-0.09927466236352261
17	0x3fb6f177e6807b47	0.0896220147846921
18	0xbfbb8e569847086c	-0.10764065950118756
19	0xbfbd1c07484e6aba	-0.11370893016138953
20	0x3f668ee72e1ca55d	0.0027536883580025332
21	0xbfb0e63f2c99c0e5	-0.06601328696138216
22	0x3fad9116fdd77196	0.05774757240917265
23	0x3fa4fda3025becc1	0.040997594869588656
24	0x3f7175108b21b9e4	0.004262032149297632
25	0xbfb74a427ba4c07b	-0.0909768630851903
26	0x3fb854352d7368b4	0.09503490790976593
27	0xbfb72392a152f708	-0.09038654745651453
28	0xbfbf640705203f30	-0.12262004733224496
29	0xbfaf7f3532b9e137	-0.06151739353384971
30	0xbfa512bcf3c4aaba	-0.04115858531652834
31	0x3f91128a0f46a1a9	0.016672284300200655
32	0x3fb411e2d2b37b20	0.07839791912145389
33	0xbfbbe2aa51475f22	-0.10892738804193106
34	0x3f9b941cafabf982	0.026932190153269094
35	0x3fb2c590df606032	0.07332711652304694
36	0x3fa49b464cd426fd	0.04024715125895104
37	0x3fb9be35df4446a7	0.10055863095137828
38	0x3fb766fe0fe94a5b	0.09141528976878403
39	0xbfac573424f41926	-0.05535281134693752
40	0xbf9b3780161792e9	-0.026578904484170805
41	0xbfa8b638300b4dc0	-0.04826522432781699
42	0xbfb6305248987fb7	-0.08667482635837485
43	0x3fbc356afb0a558c	0.11019009236254912
44	0xbf80f9771e390a5b	-0.008288317308261009
45	0x3fae39074aa1c1eb	0.05902884279283057
46	0x3fb48ffe7884f4e5	0.08032217447631103
47	0x3faceac4ca536a9e	0.05647864312932892
48	0xbf98ff23c656eb90	-0.024410780888256378
49	0xbfb288b169f8637c	-0.07239827000775095
50	0xbfbf462b2afa2774	-0.12216443824050122
51	0xbfa9d4b1870f5c75	-0.050450847374741516
52	0xbf90705776526a21	-0.016053549382016755
53	0x3fb53342ee2f576f	0.08281343760549274
54	0xbfbbef676c87f2c3	-0.10912176513370313
55	0xbf8a08f8be4c1701	-0.01271242457142874
56	0x3fbc3dd53889ca1c	0.11031849508598451
57	0x3fb9a773e06813e9	0.10021137455630903
58	0xbfaeb4f4746c585c	-0.0599743263357346
59	0x3fa689999fab5162	0.0440185553940491
60	0xbfacf2ea575e6ef1	-0.05654079739107754
61	0xbfab66595ab4dd76	-0.053515236208506886
62	0x3fbc09ccc8379942	0.1095245350657921
63	0xbf76ef0b1dae7cf4	-0.0055990633217384185
64	0x3f95293e1ff49771	0.020665140819935816
65	0x3fabaadf312cca10	0.054038023712923544
66	0xbfbfb42e33e413e9	-0.12384308592670802
67	0xbf64c99615c645d2	-0.0025375300740015727
68	0x3fab086b9464a729	0.052798616279984785
69	0xbf6d78082a684981	-0.003597274731199807
70	0xbfb0c197c3eb3ff6	-0.06545399220635759
71	0x3fbb1120fd7d2207	0.10573011578265588
72	0x3fbf5e912da7ea1d	0.12253672947546375
73	0xbf8fe11659be34df	-0.015566038717020834
74	0xbfb5785d945bac67	-0.08386788246177589
75	0xbfba43bcea98fb60	-0.10259609916191215
76	0x3fa2e1fa29d8f155	0.03688031922181049
77	0x3fb6ee824370e0ac	0.08957685610301053
78	0xbfb6c985b4fea767	-0.08901248616043987
79	0x3fbc1d7643ff7332	0.10982455406287953
80	0xbfbfcb7fabdc7767	-0.12419889398412708
81	0xbf919ac25884e6aa	-0.017191921856670213
82	0x3fb60c69066e7831	0.0861268654539067
83	0x3fbb3eb0fd39891b	0.10642534429783661
84	0x3fbbc238ac6d1b31	0.10843233308433466
85	0x3f30fb5fdcc75a2a	0.00025912371054684585
86	0x3faac4e1f2fe3022	0.05228334513876144
87	0x3f9e8881c2fc469a	0.029817607427566097
88	0x3fb162278b55ccdd	0.06790396835076558
89	0x3f822ff09862f499	0.008880500460117612
90	0xbfb56a1c6d1b7797	-0.0836503759742001
91	0x3f6c597f8826756a	0.0034606448036373265
92	0xbfbc141bd77786fa	-0.10968183527395672
93	0xbfa629220ac7b388	-0.043282569709709284
94	0x3facc69c312013d5	0.056202774998417894
95	0xbfaf71733d928ae9	-0.061412431017080334
96	0x3fa673a9cde2d2a6	0.04385119093186533
97	0xbfa6ddff1993cdb5	-0.04466244876121143
98	0x3fb0647d2843267f	0.06403333886114558
99	0xbf8293724d538797	-0.009070294365702654
100	0xbf83ce0388967e7d	-0.009670283895331306
101	0xbfbf5c9e3fb6d5b7	-0.12250699096224237
102	0x3fa08a9fd7ba3d61	0.032307620128558374
103	0x3fb4b58564413f0b	0.08089479158047312
104	0xbfb39ad01f6ab40d	-0.07658100859653434
105	0x3fa98a817763ba21	0.04988483984367443
106	0xbf5ece6c4c7cad39	-0.0018802697758911315
107	0x3f7d110b43b574ce	0.007096332551865104
108	0x3f858a9c49ced787	0.01051828479999607
109	0x3f99466bd90fbf2f	0.02468269836748432
110	0x3fa84854431d0fd6	0.04742682761437293
111	0xbfa1bb92b084f5c2	-0.0346341934659722
112	0x3fbb594f21886023	0.10683149880094382
113	0xbfbd862899943579	-0.11532834767804968
114	0x3fa982a4375b4cee	0.049824840314295446
115	0xbfa6282b4cb5e065	-0.043275216211385005
116	0xbfa3f5fd4e9bc354	-0.03898612579894825
117	0xbf9079237f34601a	-0.016087107314064132
118	0xbfaa6d8f8a889976	-0.051617131863440344
119	0x3fa0536ad652e666	0.03188642374284427
120	0xbfa98cc6fc037da4	-0.04990217043245629
121	0x3fbbc850dd548e83	0.10852532771655814
122	0xbf93a108a0523507	-0.01916898230097266
123	0x3f84b42b99522d15	0.010109272591100319
124	0x3fb1e2c7f4c2972f	0.06986665464009144
125	0xbfa2fc7589418dad	-0.037082360272303695
126	0xbfaed4aaac7ae540	-0.06021626811475267
127	0x3fb6dd508a13f47f	0.08931449290317238
128	0x3fa7038e6f0869ed	0.044949008039299666
129	0x3fb60609d36b64e3	0.08602963840111814
130	0x3fbf46c5033c50d2	0.1221736081027445
131	0x3fb0961e508b7fb0	0.06479062525204315
132	0x3f9831f24ea8e919	0.023628030825627897
133	0x3fbb97e458d401aa	0.10778643768936172
134	0x3fbe8416d9641a3f	0.11920302207372745
135	0xbfbcda7f525d62a1	-0.11270900498255766
136	0xbfa8ec9b2b48ede5	-0.048680161508368326
137	0x3f715443fd1855b1	0.004230752545045944
138	0x3f9082efe7cb790f	0.01612448551429063
139	0xbfb5e5e09bce4353	-0.08553890041208705
140	0xbfa99db2bc31a01c	-0.050031266663438795
141	0x3fb940a8eaf04341	0.09864288078121054
142	0xbfbee4442280f8b2	-0.12067056505563548
143	0xbfbea487aa030bcd	-0.11969802761727451
144	0xbfbd18e1fae859e7	-0.11366093040155754
145	0x3fb6e2654b97bae6	0.08939202399754329
146	0xbfb4d96a0da5e2e0	-0.0814424784965797
147	0x3fb1600a6dff9f0d	0.06787171540747412
148	0x3fb39696b1a23a54	0.0765165504146606
149	0xbfb56979e294b1c7	-0.0836406877685426
150	0xbfb78e0ccb760b83	-0.09201126067459424
151	0x3faf151cf85a1fad	0.06070795566216645
152	0xbfa3c8e029290dd1	-0.03864193441816222
153	0x3fb055cee5884b33	0.06380932906931207
154	0x3fb3ea69786403d9	0.0777955931589668
155	0x3f5390038e7c5f6e	0.0011940035564687828
156	0x3fac6a2b14c28854	0.05549749973694476
157	0x3fbab4f105205341	0.1043234479441937
158	0x3f81a69a1a822985	0.00861854928395612
159	0x3fb66373bddf569c	0.08745501885945334
160	0x3fa4ae15445312cc	0.040390648451226946
161	0xbf87f06971a45eaa	-0.0116890180402572
162	0x3fa97b666ff96ab9	0.049769593399749686
163	0xbfbe7c4cb0c57703	-0.11908416095453948
164	0x3fb81e6a1ceb1aa4	0.09421408849730512
165	0x3fa60045213fda94	0.04297081023098773
166	0x3fbba7bf390d4602	0.10802836554400844
167	0xbfbb40664f15dbf1	-0.10645141058726872
168	0xbfaeb110fd889dfd	-0.05994465918439216
169	0x3faca5b863811156	0.05595184530878565
170	0xbf9eb19794438ba9	-0.02997433512144779
171	0x3fb9b2ec677e317f	0.10038640524562047
172	0xbf6f01a5ae76a8c5	-0.00378496513049695
173	0x3faf273fc6b1631c	0.06084632206392923
174	0xbfa873f6081d94ae	-0.04775971268717548
175	0x3fbfc033ea28429d	0.1240265318558706
176	0x3fb7ab1bae4af9ea	0.09245465283581891
177	0xbf7440e02f54b3ad	-0.004944682810031614
178	0x3f70f167cca168ee	0.004136472192920444
179	0xbf9c27cfa7ce3385	-0.02749561750129061
180	0xbfa0939ffb368516	-0.03237628881039194
181	0x3fb956bd3638edbd	0.09897978376186863
182	0xbfaabc3816ef056d	-0.052217247771760046
183	0x3fbc0b8409268368	0.10955071662330129
184	0x3fb887ae267de584	0.09582031669369512
185	0xbf83e5c9670c0b16	-0.009715627152677746
186	0xbf99e6c5fbe2b7ed	-0.025294393061521637
187	0x3fbdb9c20a5bf4a0	0.11611569168958846
188	0xbf9d7e72daea2c23	-0.02880267583035957
189	0xbfb52749a3d7d7af	-0.08263073206020864
190	0xbfbe5dfc20d42d71	-0.11862159539685081
191	0xbfbfee234389e354	-0.12472744368450367
192	0x3fb24fbc84080311	0.07152918075008709
193	0x3fb68c6fa5c0daeb	0.088080385176777
194	0xbf9ad9d2ec121881	-0.0262215572916138
195	0x3fbe3f3f99f6d8cd	0.11815259465115276
196	0xbfa30fc80213eb38	-0.037229776624334965
197	0x3fb1a70d17f71f95	0.06895524821368178
198	0xbfaa984393c779ea	-0.05194293192811357
199	0x3fb3d7ea85c77c6b	0.07751336828322201
200	0x3fb9dcd6c9a76afb	0.101025985938957
201	0x3fb40aa58ca6ac00	0.07828745540489024
202	0xbfa3f608a0afb06b	-0.03898646317961226
203	0x3fa955102b96ffba	0.049477105446839656
204	0x3fb212e2b74024c1	0.07060067151919026
205	0xbfba961fe16b208b	-0.10385321858768941
206	0xbfb42d96abba9a94	-0.07882062618828406
207	0x3fa29857cf156e15	0.03631853487851459
208	0x3fafd3ea87c35df6	0.06216366679444356
209	0xbf9cebe5e6ced2a3	-0.028243629658123336
210	0x3fbea64374fd1801	0.11972447973411705
211	0x3f8255254a2322a3	0.008951464962949024
212	0xbf78a41d48a42fdc	-0.0060158866783801244
213	0xbfaaa3101fd835ea	-0.05202532185294813
214	0xbfba0515a2454a48	-0.10164008342443609
215	0x3fbfd7548e8ac55e	0.12437942962676149
216	0xbfaf4f0c8fdbdb7c	-0.061149971543207976
217	0xbfad75811db760bc	-0.057537112119179196
218	0xbfa5cc0afe60171d	-0.042572349120787424
219	0xbfa7fc3eef6489ca	-0.04684635803484445
220	0x3f9be67c4b03cc2c	0.027246419981519818
221	0x3fb4569a80f4e863	0.07944646499973511
222	0xbf9c9fc417c76250	-0.02795320887693925
223	0x3f875f64990aff0e	0.011412416382313075
224	0x3fba40f31b64da8a	0.10255355280683368
225	0x3fb3d710e32e7ed3	0.07750039621759734
226	0x3fb31bdf9b3e3ca4	0.07464406528582629
227	0x3fb98d59ca57b438	0.09981309118275383
228	0xbf91df4aeafccc0e	-0.017453356354234777
229	0xbfb1ebed655aba30	-0.07000621532891027
230	0xbfb6fc55ab4795a8	-0.08978782111770178
231	0x3fb374d75eea0a3e	0.07600160662881536
232	0xbf5a325991aa66c1	-0.0015989184090926952
233	0x3fab3bd9a153fd83	0.05319099516236305
234	0x3fa78a9542ce906f	0.04597917976869403
235	0xbfbf34cbebc26dab	-0.12189936166617225
236	0x3fb5f2f0bf5f17e7	0.08573822662501095
237	0x3faa1560e728f08e	0.050944355218662016
238	0x3fa133df203e63fa	0.033598873792648434
239	0xbf6ae0d721fa1448	-0.003281040364358865
240	0xbfa0a31e51c845ae	-0.032494494898979695
241	0x3fb4e1bc50884d99	0.08156945196269873
242	0x3f90a1d3fd0c53c9	0.016242325134118638
243	0xbf6ea7fc2e730509	-0.003742210904960634
244	0xbfaf5e04913d8737	-0.061264174203428494
245	0xbfa0e45610ffd595	-0.03299206693183546
246	0xbf7a653f594ca4ee	-0.006444213348723011
247	0xbfb8b1f24a3c1006	-0.09646524727219238
248	0xbf9ee2b7ac7af8af	-0.030161733534207865
249	0xbfb70dfdb9238ee5	-0.09005723733894973
250	0xbfb9e2399320ecb3	-0.10110816804892657
251	0xbfbcb5f65367bc8f	-0.11215152298221852
252	0xbf8f2014920c66e5	-0.015197907168431122
253	0x3f9d8098bd383506	0.028810869740529398
254	0xbf7ffb90bf4b2972	-0.007808270853909215
255	0xbfb367bd58f87dee	-0.07580169126639877

_lstm1.bias_ih_l0 f8 [256]
0	0xbf80398805b8e45e	-0.00792223231757044
1	0xbfb885cf958529d7	-0.09579179191965835
2	0x3faf58cfd7cafea6	0.06122445592108976
3	0x3fb15506670e3924	0.06770362869267338
4	0x3fb02110ae2d1a23	0.06300453426693102
5	0xbfb84fffaa2da575	-0.09497068314307973
6	0x3f98ea9c9bbaed7a	0.024332472805992357
7	0x3fb38879b22def26	0.07630119896014928
8	0xbfb7feb52bdab447	-0.09373028107320734
9	0x3facfcd3b398e228	0.05661641661976474
10	0xbf9f2bb0942e3dfe	-0.030440100712040057
11	0xbfba2bfd570b57b1	-0.10223372817139766
12	0x3fb6823d092920e0	0.08792478059433817
13	0x3f89e3c483cb2ddb	0.012641463539146016
14	0xbfb1bb537c210776	-0.0692646196412435
15	0xbfbbb445852816d5	-0.10821947575467601
16	0x3fbaa363bc6b8f4c	0.1040556273470063
17	0x3fbe0475a7028c79	0.11725554778472426
18	0x3fbf74b44371dc4b	0.12287451407051823
19	0x3faff0b449cc0fbc	0.06238330269664469
20	0x3fab08711802ffba	0.05279878061401129
21	0x3fa31101f4ac0d9d	0.03723913299293289
22	0x3faf8e848593bd93	0.06163419848041509
23	0xbf954e000d30e4c0	-0.02080535965453545
24	0x3fb0577863be224d	0.06383469042897012
25	0xbfb0a22ffe3e877f	-0.06497478444228298
26	0xbfbf7a295617a1c2	-0.1229577861009892
27	0x3fbd3c38259a190d	0.11420012395874242
28	0xbfbdea767d6ce88f	-0.1168588691915906
29	0x3fb84b340c645e02	0.094897511506467
30	0x3fbf6fee8f02f4f8	0.12280169478886538
31	0xbfa1431adffa1db1	-0.03371509536833218
32	0x3f980f7455fe27c5	0.023496453999122275
33	0x3fba80ec7e5bc05b	0.1035297211162755
34	0xbfb16d505bd96502	-0.0680742477647023
35	0xbf8573fe5d8f2928	-0.010475146513176783
36	0xbfbc24286c50eec0	-0.10992672581135832
37	0xbfa73bc84ff86e8f	-0.04537797905160545
38	0x3fa1181611485e32	0.033386888131812134
39	0xbfbf60b9a8556c47	-0.12256965980252331
40	0x3fa1cbfc112110f4	0.0347594042691827
41	0x3f9b0bffe09b5076	0.026412962039856734
42	0xbfb101cf0828f72a	-0.06643384885043405
43	0xbfb30266c564461a	-0.07425539321072741
44	0x3fbeda1a94b8fad3	0.12051550036356255
45	0x3f9e8949755dbb1a	0.029820583141766034
46	0xbfa152a539b4a2ff	-0.033833659452573876
47	0xbfb15a028c0f8d35	-0.06777969283534875
48	0x3f8010e0c3e8cc67	0.00784469220989177
49	0xbfa32259997b0f61	-0.03737144468826049
50	0xbf8cdd5c45b70bcb	-0.01409408653024071
51	0xbfb25beeedcf5a6f	-0.07171529107959328
52	0x3fa784552ba5894a	0.04593149335666398
53	0xbfab5a5b21dfbf92	-0.05342373646260436
54	0xbfbeab478c2a257a	-0.11980101749408859
55	0x3f66c05d435a6a85	0.0027772733254328185
56	0x3f9f966ac2bb50f8	0.030847232947807307
57	0xbfa6351319026866	-0.043373677065759605
58	0x3f4480213d472e36	0.0006256258298491027
59	0x3fb024607b697682	0.06305506718623557
60	0xbfacddb219f118c6	-0.05637890402481242
61	0x3f833c736a112a6e	0.009392644571694943
62	0x3fa34bbd0f61dc93	0.03768721401950716
63	0x3fa2269b2427a72c	0.03545079056114128
64	0x3fb9d938f0a6c05b	0.1009708011176839
65	0xbf8a52499f2e91ba	-0.012852263613077553
66	0x3fb48e343c8104c0	0.08029486157558363
67	0x3fb2fc74b4dcb93a	0.0741646710928067
68	0x3fa8fe5ac1e0bc6a	0.0488155709903076
69	0xbfbdd41ee30f54a4	-0.1165179542870925
70	0xbfbfea9f5ffeacff	-0.1246738061296817
71	0xbfbbbdf38ae0ab5c	-0.10836717739645735
72	0x3fb3f8a720b6ce96	0.07801289128002006
73	0xbf859df79f100cf6	-0.01055520490809279
74	0xbfb607e814cab162	-0.08605814464198638
75	0x3fb7fdefb62e8e84	0.09371851156043404
76	0x3fb9d021c5fd58ce	0.10083209117633204
77	0x3f8e69f3745b14de	0.014850522983929467
78	0x3fa4a44b675a3ced	0.04031596790911771
79	0xbfa52c8d805385d3	-0.04135553542597461
80	0x3f568b2a1acffa19	0.0013759528330862302
81	0x3fa614f2647c8543	0.0431285617508004
82	0xbf6cd3f3e2825095	-0.003519035661222312
83	0x3faa5158b3278363	0.05140187441771251
84	0x3f94051b54183096	0.019550730712623997
85	0x3fb70c2ef0b8bcb8	0.09002965332978163
86	0x3fa2106f3a2b526d	0.035281635142074254
87	0x3fa6bbab3b55c673	0.044400549881982075
88	0xbfacc4c33945238d	-0.05618867944810466
89	0x3fad8e90218548f1	0.057728294460177916
90	0xbfa3978c40f46a01	-0.03826559346108028
91	0x3fa12195bfdbc590	0.0334593579008341
92	0xbf80fba58a8669d9	-0.008292477884244075
93	0xbf81bc63cf95658b	-0.008660106441925183
94	0xbf92f64b4b2d6908	-0.01851766249033296
95	0xbfaf5cc3c013eb8a	-0.06125461311054099
96	0xbfb03137b86500c8	-0.06325100185222532
97	0x3fb3b64aea33280b	0.07700031488198548
98	0x3f68e3728588e909	0.003038142848052709
99	0x3fbbc5a93b2e8f7f	0.10848481840963407
100	0x3f9835ea740140de	0.02364317257917114
101	0x3fbb94d700704329	0.10773986588197872
102	0x3fbc6e9d1cd5362c	0.11106283143927759
103	0xbfa2032a86f17421	-0.035180405590587556
104	0xbfba9deb0d3a524f	-0.1039721400541762
105	0x3fac56aa3439cd9b	0.05534870040437597
106	0xbfae8e542c996f4f	-0.059679632610566295
107	0xbfb6a01035e918e5	-0.08837987247634123
108	0x3fb655394c40b35e	0.08723791228903852
109	0x3fa08c8e4284dc20	0.032322354907982964
110	0x3fb18cb7c9298862	0.06855343495547708
111	0x3f8eb748d6ebf1f1	0.014998024996651234
112	0x3fb13b7adedf344e	0.06731384221275613
113	0xbf99e9d8dfc3d2e7	-0.025306118638542065
114	0xbfb7c2e71dc587de	-0.09281773068280993
115	0x3fa81b38e738d083	0.047082689500173046
116	0xbfb6dd9a4c1f83a3	-0.08931888922189883
117	0xbfb2ed1fb10644dd	-0.07393072196852608
118	0xbfb51c5c3ecf29ea	-0.08246399434498355
119	0xbf9187ce8b7f0e82	-0.017119624389819517
120	0x3fb6ea0f2f39b894	0.08950896170583383
121	0x3fbf9771ddecb492	0.12340461414415163
122	0x3fa77b9c5da85671	0.045864950592812266
123	0x3f913270bbd49152	0.01679397722649984
124	0x3fbd32de715ba29b	0.11405744807746958
125	0x3fb39a72b4f33383	0.07657544057583547
126	0x3fabab80895cb39c	0.05404283215316427
127	0x3fa3e08e9a1a10dc	0.038822609244591993
128	0xbfadc2ad3d5685ed	-0.058125890481516375
129	0x3fb8fe31dd32d516	0.09762870455127301
130	0x3f99b29c2b6289cb	0.025095405719761914
131	0xbf73708ab9834ce1	-0.004746000188066563
132	0xbfad3130b272a797	-0.05701591661757204
133	0xbfbab42e27e94d9b	-0.10431183313749275
134	0x3f6ccc289960ce6b	0.003515319152052323
135	0xbfacf06ff797a7c9	-0.05652189156883442
136	0xbfa1ac1cb87a849c	-0.03451623680053581
137	0x3f8ced2853e31ab3	0.014124217090637136
138	0xbfa7a2a45992308b	-0.04616273492237707
139	0x3fb88cbea57decf7	0.09589759388284223
140	0x3fb417f45f88d4e4	0.07849051792512146
141	0xbfaa642b65ff5f9a	-0.05154548282706557
142	0x3fb21044a99e5344	0.07056073323321949
143	0x3fb8f1e419b63743	0.09744096400956175
144	0x3f7af26fb07f8283	0.006578861510178616
145	0xbf9dcfb612bb2a0e	-0.02911266793561578
146	0xbfa3d7d33e34a1c9	-0.03875599035592676
147	0xbf3b52a7cdff1b8c	-0.00041691395562931037
148	0xbf9d6f05c0fa277a	-0.02874382963503972
149	0xbfa683115047c7f4	-0.04396871666894234
150	0xbfb7b88dfd5921a0	-0.09265983042963066
151	0xbfa9be4732acdce5	-0.05027983182520205
152	0x3fa1930d1d8ca8bd	0.03432503686629349
153	0xbf97d3c1362d0547	-0.02326871770060748
154	0xbfbdb1cd20f1c4d7	-0.11599428228670959
155	0x3fbaf616fc527025	0.10531753215985924
156	0x3f8221d00b7689ce	0.008853555059265352
157	0x3fbcd217ffa88abc	0.11258077613505696
158	0xbf4b8fbb5b8d036e	-0.0008411087829714844
159	0x3f748e62538b31e3	0.005018600547100213
160	0xbf736f8c8f3a3941	-0.004745053348996387
161	0x3f924dfeb2e6f7d8	0.01787565199787608
162	0x3fbfc6c5cbdaf48a	0.12412677981315504
163	0xbfb477e550273a16	-0.07995446402421921
164	0xbfbf2e92c4da2d98	-0.12180440240825019
165	0x3fa657936e5130fe	0.043636901108216705
166	0x3faa39bcfcdfb0b9	0.05122175776327382
167	0xbfa84556f5c75028	-0.04740401983477255
168	0x3fbf4fb7daf0b908	0.1223101529619478
169	0x3f9b09ae1335b421	0.026404113695594703
170	0xbfb586500c0493a0	-0.0840806989040872
171	0x3fb855562706faae	0.09505213215650585
172	0xbfacaa7a57e66463	-0.05598814318654701
173	0x3fb6ef4895ff183d	0.0895886770441345
174	0xbf67d6435d55d44e	-0.002909785815683941
175	0xbf4601e8de167a5a	-0.0006716143654335691
176	0xbfb362e1d551991d	-0.0757275720403396
177	0xbf7e9674a849abf4	-0.007467704480045068
178	0x3f953d0a82da358d	0.020740665661426006
179	0x3fb79ce883f05346	0.09223798009072678
180	0xbfaf18a10c3fa83b	-0.0607347800685862
181	0xbfaaa350c8208e46	-0.052027248792253775
182	0x3fb770b7694b2cdf	0.091563666540583
183	0x3faef49980c2fa36	0.06045989701077696
184	0x3f9790667ffc0392	0.023011781274366046
185	0xbfac4cbebe72416a	-0.055273018596497206
186	0x3fb3fc5b9e5a18d0	0.07806942573560893
187	0xbfb1b36bed67435e	-0.0691440062139583
188	0xbfb9d55d02858138	-0.10091191588935977
189	0x3f394552c351d1df	0.00038560171680693077
190	0xbfbaa306a0835db9	-0.10405007761743591
191	0x3f85028d08efddf4	0.010258771739230156
192	0x3fa0e3710ff2ff94	0.032985242077756244
193	0x3fb0991a186ebe12	0.06483615013598179
194	0xbfb2fca2c865c8ef	-0.07416741745490517
195	0xbfb1cc23070d076c	-0.06952113077298144
196	0xbfa4d5b37eb75ac4	-0.040692910402574195
197	0xbfb2c145915d4efb	-0.07326159285485893
198	0x3fb0dcf46d613b32	0.06587150259404664
199	0xbf9237f60159543f	-0.017791599113781805
200	0xbfbfcbc8577ea93b	-0.12420322548010614
201	0xbfb046c2d9fa27c2	-0.06357972928722602
202	0x3fa2c9404d6ebc78	0.03669167466375084
203	0x3f9899eb6ff10f1a	0.02402465697038201
204	0x3fb12a34f572f627	0.06705027573021792
205	0xbfb5dace8b11b9b4	-0.08536997695202936
206	0x3fa3716a03701a4b	0.03797465602842872
207	0xbfa7478b6a321647	-0.04546771689733169
208	0x3fbc488f98b3897b	0.1104821918302487
209	0xbfbd172739d3996b	-0.11363454019337886
210	0xbfa1dbeac297a210	-0.034880958799309636
211	0x3fb22932e51a7053	0.07094114392606458
212	0xbf993c1b646f0ccc	-0.02464335251330567
213	0x3fb79c40b6bd22c2	0.09222797833821075
214	0x3f94bcaba2833cbe	0.020250970643982617
215	0x3fb3dd9992c4b44b	0.0776000960656386
216	0xbf77e8121d7de7d1	-0.005836554300794065
217	0x3fb25987b88beb08	0.07167862182170037
218	0xbfb05671666c2908	-0.06381901503133147
219	0xbfb4d30c5c87a6fa	-0.08134534129171903
220	0x3fa3614c6c64bc46	0.03785170386469665
221	0x3fb1c041cbae4282	0.06933985922501942
222	0x3fa65abbc8acb8c2	0.043660991903708105
223	0x3fbbfef93fe9d09b	0.109359338859408
224	0x3fa158bb1f04ddc9	0.033880088364124435
225	0x3fb3fe01c5f05676	0.07809458811274247
226	0x3fac8d12fe6b0d25	0.05576381068888229
227	0xbfa9733c3b499307	-0.04970730041239873
228	0x3fa9844b18d96a5f	0.04983744314514093
229	0xbfa41622273209fc	-0.039231364521601336
230	0xbf82bfef5298de6a	-0.00915514918152312
231	0x3fb2db77c3049b74	0.07366131316358154
232	0x3f85856d9ad2bbb6	0.010508400237396614
233	0x3f9ace5e33f7a4b0	0.026177856370769248
234	0xbfbe236c15b80fe7	-0.11772799997567028
235	0xbfad798bc8110658	-0.05756794755189948
236	0x3fb61141069875f2	0.08620077525161898
237	0xbf8121cc3aec4dc1	-0.008365245388211375
238	0x3fb5250ea4c249ea	0.08259669802126948
239	0x3f536e76355d045c	0.0011860041026497048
240	0x3fab546d684ca42f	0.053378504735811176
241	0x3fb2ccdc351e35d4	0.07343841835810078
242	0x3f9b3fbeafa6eff2	0.02661035487265901
243	0xbf8ca8d35ba207b2	-0.013993884309687708
244	0xbf9f3ff151bea7bc	-0.030517359365752603
245	0x3fba44b450525639	0.10261084519364595
246	0xbfb37863669b0798	-0.07605572943705707
247	0x3fbcea5878b8e497	0.11295082995720161
248	0x3fbd4a7ecaa699e3	0.11441795775917955
249	0x3fb9b091a7f5dd9a	0.10035047865482341
250	0xbf8d54959b169c23	-0.014321488185329362
251	0xbfb9262366bd794c	-0.09823819406799322
252	0x3fb53c9f6ea49b2f	0.08295628024334854
253	0x3f845b3f19613eff	0.009939663850814904
254	0x3fba59ac29fe4ca6	0.10293079400280422
255	0x3fbdb97cf21253c4	0.11611157331419891

_lstm1.bias_hh_l0 f8 [256]
0	0xbfa56a8f816e3918	-0.041828617620114084
1	0x3fbb67b0ea7ad629	0.10705095028500779
2	0xbf5cf99506a02b50	-0.0017684893923639207
3	0x3faae5db4e1c724a	0.0525349171495902
4	0xbfb4b9b191d2e5dd	-0.0809584599509416
5	0xbfbecc926a2da575	-0.12030901996845052
6	0xbfb9da82d91144a1	-0.1009904651594007
7	0xbfa97e8f9ba421b5	-0.049793708562052265
8	0xbf9e2597af6ad11c	-0.029440279084796392
9	0xbf9eb96698ce3baf	-0.030004122807038843
10	0xbfabc1acca171f00	-0.0542119976703912
11	0xbfb2ba61170b57b1	-0.073156421781589
12	0xbf453ddb6b6f8fa0	-0.0006482430825340731
13	0x3f9f60e141e596ec	0.030643005034469192
14	0xbfb33d023c210776	-0.0751496693419805
15	0xbf7b820852816d53	-0.006715805539069325
16	0xbfa94a130728e167	-0.04939326727293541
17	0xbfb686a518fd7387	-0.08799201831921098
18	0x3fb6c1b58371dc4b	0.0888932653341367
19	0xbfa20e0c3633f044	-0.03526342546135244
20	0xbf61723e7fd00453	-0.0021296711624932212
21	0xbf9718d516a7e4c8	-0.022555665500452432
22	0xbfa3b800fa6c426d	-0.038513212746811167
23	0x3fbc2fa73cb3c6d0	0.11010213119495948
24	0x3fa9a892c77c449b	0.050114237643478186
25	0x3fbf7e7f81c17881	0.1230239574228751
26	0xbfb19e6d9617a1c2	-0.06882367052424512
27	0xbfba4417da65e6f3	-0.10260151941283961
28	0xbfbcbc3ebd6ce88f	-0.11224739193576937
29	0xbf5f1e2ce6e87f9c	-0.0018992842193554576
30	0xbfb7028e30fd0b08	-0.08988274284369535
31	0xbfbf79a2affd0ed9	-0.12294976040453366
32	0xbfba1e562a80760f	-0.10202539956704747
33	0xbfbaf0f741a43fa5	-0.1052393470056346
34	0x3fb23a7364269afe	0.07120438761794998
35	0x3f974029d1386b6d	0.022705701250838418
36	0xbfbf110eec50eec0	-0.12135403890072904
37	0xbf783f927fc3747d	-0.0059200022335207355
38	0xbfb14098375bd0e7	-0.06739188529519745
39	0x3fb58d1c57aa93b9	0.08418442859927112
40	0x3fbb099b4890887a	0.10561533471676113
41	0xbf5cce21f64af8ab	-0.0017581302319480778
42	0xbfb0df700828f72a	-0.06590938758105538
43	0xbfb41e03c564461a	-0.07858298844464465
44	0x3fb551e9d4b8fad3	0.08328114932462975
45	0x3fb02fe61d576ec7	0.0632308789858441
46	0x3fb1253b6325ae81	0.06697436495385924
47	0x3fbb1b0c33f072cb	0.10588146465347419
48	0xbf47c353c1733998	-0.0007251891101079265
49	0xbfb930e94cbd87b1	-0.09840257762473816
50	0x3fb7e86d37491e87	0.09339029884096749
51	0x3f68cc924614b217	0.0030272347363704643
52	0xbfa6d39fd45a76b6	-0.044583315536539755
53	0xbfbcb8b910efdfc8	-0.11219364799023801
54	0x3fb2ad6df3d5da86	0.07295882418643815
55	0xbf92aa215794b2b0	-0.018227120371352157
56	0x3fbb9cdeb0aed43d	0.10786239446208952
57	0x3fb98a8cf37ecbcd	0.09977036423406034
58	0xbfaade32fb0ae347	-0.05247649492725386
59	0xbfb376110496897e	-0.07602030145657143
60	0xbfbee194ccf88c62	-0.12062959674999399
61	0x3fb663a2ad42254d	0.08745781640950163
62	0x3f6af428f61dc931	0.003290252688139671
63	0xbfb4f19d2dec2c6b	-0.08181173678546975
64	0x3fb4661030a6c05b	0.0796823614862218
65	0x3f9b84a03068b723	0.02687311454263076
66	0xbf851aae1bf7da00	-0.010304794529457872
67	0xbfb418930b2346c6	-0.07849997541350281
68	0xbfb890e15f0fa1cb	-0.09596069880320283
69	0x3fb4a89f5cf0ab5c	0.08069797534032602
70	0xbf9fff3f7ffab3fa	-0.031247131525265794
71	0x3f92ddf7d47d528f	0.018424866051037155
72	0xbf938ba77d24c5a5	-0.019087426198159858
73	0x3f8dff4a60eff30a	0.014647084315578169
74	0xbfa9bb47299562c3	-0.05025694258319426
75	0xbfbf936e49d1717c	-0.12334336569023735
76	0xbfba7d5dfa02a732	-0.10347545007485051
77	0x3faa36bcdd16c537	0.051198865879437276
78	0x3f98488dceb479da	0.023714271298666968
79	0xbfab42fa005385d3	-0.053245365657641174
80	0x3f662c750d67fd0d	0.002706745736986377
81	0xbfaa35521b837abd	-0.05118805490359566
82	0xbfa143543e28250a	-0.03371680506467996
83	0x3f9c80f7664f06c5	0.027835717791964826
84	0x3fb162c555060c27	0.0679133732392506
85	0x3fbe7dbb30b8bcb8	0.11910600604527388
86	0xbfaf2ee5c5d4ad93	-0.06090467491079745
87	0x3f9a48cd76ab8ce4	0.02566834484867976
88	0x3fa90567c6badc73	0.04886936474707051
89	0xbf938d0dbcf56e1e	-0.01909276452839325
90	0xbfb91eff207a3500	-0.09812922041801997
91	0x3fb9c5ec1fede2c8	0.10067630557558538
92	0x3fbdfaca8eaf32c5	0.11710802062516297
93	0x3fa960928c1aa69d	0.049564914324333055
94	0x3fb3f2afad34a5bf	0.07792184809354462
95	0xbfb1863ea009f5c6	-0.06845466048431267
96	0x3fb44b74c79aff38	0.07927636979274844
97	0xbfb6ed1295ccd7f5	-0.08955494076948851
98	0x3f94243f50b11d22	0.0196695225716016
99	0xbfb7e97644d17081	-0.09340609722261385
100	0xbfa87daec5ff5f90	-0.047833882970450436
101	0xbfa0a9427f1f79af	-0.03254134942811803
102	0x3fb4314cdcd5362c	0.07887726203372186
103	0x3f9be737f21d17bd	0.027249216225093898
104	0x3fa01286658b5b64	0.03139133443408218
105	0x3f6268d3439cd9a7	0.002247250199526724
106	0xbfbf347a564cb7a8	-0.12189449889112203
107	0xbfa987786bd231c9	-0.04986168209243009
108	0xbfbe0ae273bf4ca2	-0.117353585489854
109	0xbfa7ef313d7b23e0	-0.04674676776409803
110	0x3f6794e925310c44	0.0028786233538382906
111	0x3fb89c939add7e3e	0.09613916903389794
112	0x3fa41156bdbe689c	0.03919478479584024
113	0xbf7c0d2b7f0f4b9e	-0.006848497302558791
114	0xbfbe8dd91dc587de	-0.11935193039747058
115	0x3f957ad6ce71a105	0.02097640643151612
116	0x3fbd3f1673e07c5d	0.11424389199281522
117	0xbf94735dc4191374	-0.01997133740794106
118	0xbfb067bf3ecf29ea	-0.06408305438450382
119	0xbfbfeb27e2dfc3a0	-0.12468194283407152
120	0xbfb9c89950c6476c	-0.10071714612993582
121	0xbf7ffbf22134b6ea	-0.007808633631879872
122	0xbfbab983912bd4c7	-0.10439321798533562
123	0xbf4c6268856dd5be	-0.0008662233693558714
124	0x3fa518ede2b74536	0.041205820012360325
125	0xbfb7ca4acb0ccc7d	-0.09293048341059947
126	0x3fb9d064c4ae59ce	0.10083608438285482
127	0x3fb213e18d0d086d	0.07061586087823608
128	0xbfb8debe9eab42f6	-0.09714881299738551
129	0xbfa25476c59a55d4	-0.0358006588186687
130	0x3fb91a294ad8a272	0.0980554397325564
131	0x3f898450a33e598c	0.012459402066991719
132	0xbfa99753b272a796	-0.049982657941043104
133	0x3fa19c9a302d64cb	0.03439790571310083
134	0xbfa4a6b1f669f317	-0.04033428318959958
135	0x3fad78ab88685837	0.05756126442081249
136	0x3f91779e8f0af6c7	0.017057874184266433
137	0x3fbbabf20a7c6356	0.10809242969515984
138	0x3f9ff4a94cdb9ee9	0.031206746402772465
139	0xbf9d8b396a084c20	-0.028851410958008583
140	0x3fb556f75f88d4e4	0.08335825044999329
141	0x3f9efeac340140ce	0.03026837413227739
142	0x3fb759f9a99e5343	0.09121666327548632
143	0xbf97a256992722f1	-0.023080208871564648
144	0xbfb74e7204f807d7	-0.09104073163328451
145	0x3fb4abf13b51357d	0.08074863145994544
146	0xbfb5377f9f1a50e4	-0.08287809023233056
147	0xbfbe90c227cdff1b	-0.11939633819383426
148	0xbfbbeb9d703e89de	-0.1090639494928278
149	0x3fa35247afb8380c	0.03773712177290642
150	0xbfa680cefab24342	-0.043951480963306824
151	0xbfbe015399566e73	-0.11720774167627628
152	0x3fb8e763cec6545f	0.09728072927676255
153	0xbfa910d69b1682a3	-0.04895659106410235
154	0x3fb8a43d5f0e3b29	0.09625609942143555
155	0xbfa5bbc7875b1fb5	-0.04244826819700568
156	0x3fbf0a51016ed13a	0.12125116620047019
157	0xbf7e497805775443	-0.0073942840894761245
158	0xbfb9c4f936b71a07	-0.10066182695218383
159	0x3f958f3594e2cc79	0.021054112636829523
160	0xbf8032de479d1ca0	-0.00790952354476665
161	0x3fa9312559737bec	0.04920307843143931
162	0xbf9b2cc3d0942dd7	-0.026537952047005788
163	0xbf9e92fc409ce855	-0.029857579654369044
164	0xbfae576009b45b31	-0.05926036947692238
165	0xbfa8a12791aecf01	-0.04810451176981979
166	0x3f376e7e6fd85d07	0.0003575380977464824
167	0xbfbe2bb77ae3a814	-0.11785456419207235
168	0x3fbf6f275af0b908	0.12278982134077776
169	0x3fbe9b9784cd6d09	0.11956164352652733
170	0x3fa6e03967f6d8c2	0.044679445210407134
171	0xbf986c0063e41547	-0.023849493119106027
172	0x3faf845b28199b9d	0.06155667175772026
173	0xbf9a0cf9a8039f0e	-0.02544012153603519
174	0xbfb70a745aeaaea3	-0.09000327319761907
175	0xbfbe703a51bc2cf5	-0.11889996047482383
176	0x3f9f62c2aab99b8e	0.030650178594807502
177	0xbfb291b70a849ac0	-0.07253593451296592
178	0xbfbc385c5f49729d	-0.11023499800053078
179	0xbfb61ed7bc0facba	-0.08640812245691878
180	0x3fb1894b79e02be2	0.06850120282631125
181	0x3f8c61a6df7dc6e8	0.01385813111821528
182	0xbfa89a58ad69a644	-0.04805256955007711
183	0xbfb731b87f9e82e5	-0.09060242763235811
184	0x3f9c82977ffc0395	0.027841918169545805
185	0x3fb7419ae0c6df4a	0.09084480273929532
186	0xbfb95f4921a5e730	-0.09911019393430531
187	0xbf9997a8b59d0d78	-0.024992595753486196
188	0x3f8b4dd7ebd3f642	0.013332068333052342
189	0x3f9e73c54b0d474a	0.029738505082895807
190	0xbf494bd041aedc60	-0.0007719771268658408
191	0xbf9744f27b881105	-0.02272395018555164
192	0x3f8f89183fcbfe53	0.015398206183362328
193	0x3f9f17a361baf84a	0.03036361011503911
194	0x3fa790836f346e23	0.046024424862676015
195	0x3fa9ac4cf1e5f12a	0.05014267399653456
196	0xbfb1c7153f5bad62	-0.06944401547268833
197	0xbfb0dc03515d4efb	-0.06585713135183006
198	0x3fbdcc9eed613b32	0.11640351577191835
199	0x3f9e19f9fea6abc1	0.029395967643420343
200	0xbfbd1d2c977ea93b	-0.11372641275980737
201	0xbfaaac43b3f44f87	-0.052095523564417205
202	0xbfb87f9b5948a1c4	-0.0956971257188633
203	0x3fb0c6d39bfc43c5	0.0655338531326058
204	0xbfbebc100a8d09d9	-0.12005710847464658
205	0xbf5dd2d2c46e6d2c	-0.0018202837252150978
206	0xbfb5c311be47f2db	-0.0850077714494079
207	0x3fbfc71ecae6f4dc	0.12413208440462448
208	0x3fa72e45316712f9	0.0452748892599057
209	0xbf951cc7e74e65ab	-0.020617602818310193
210	0xbfa77ba44297a210	-0.0458651858605813
211	0xbfa4708735cb1f59	-0.03992102176340379
212	0x3fa6a34ccdc8799a	0.04421463024140167
213	0x3f6f4a96d7a4583d	0.0038197466029812597
214	0x3fb01ce3e8a0cf2f	0.06294083051107856
215	0xbf90532db4ed2ed3	-0.015942300956608712
216	0xbf71bea21d7de7d1	-0.004332192671307981
217	0xbfb1f09cc77414f8	-0.07007770413845893
218	0xbfb20414666c2908	-0.07037475109624236
219	0x3fb7123e63785906	0.09012212685079043
220	0x3fbc9b8176325e23	0.11174782882368865
221	0xbf96877ed146f5f8	-0.022001248858705552
222	0x3fbcddb264565c61	0.11275782537119163
223	0xbfb230b880162f65	-0.07105591895213832
224	0xbfaa85dd60fb2237	-0.05180255707597719
225	0x3f5a48717c159d82	0.0016041858910627875
226	0xbf9e70800329e5b5	-0.029726028626532137
227	0x3fbf2bf9625b367c	0.12176474238659724
228	0xbfb9f489b3934acf	-0.10138760217823094
229	0xbf8a33109cc827f2	-0.012792711052515646
230	0x3f951f4656b390cb	0.020627116243205273
231	0xbfb1863fbcfb648c	-0.06845472682779724
232	0x3fbf6852f35a5777	0.12268560830338325
233	0x3fb9977d4cfde92c	0.0999677956550939
234	0xbfb72d1955b80fe7	-0.09053190558194012
235	0xbfb13d4fe408832c	-0.06734179799287848
236	0x3fb31671469875f2	0.0745611951210419
237	0x3fbccdf0b8a27649	0.1125173998611554
238	0x3fabf25cc98493d3	0.054583453749991094
239	0xbfaafec6ce5517dc	-0.05272504109102247
240	0x3fb36b16f4265219	0.07585280857740208
241	0xbfb922facae1ca2c	-0.09818999722646343
242	0x3f96da5aafa6eff2	0.0223173303327115
243	0x3f9faa34522efc27	0.03092271567924967
244	0xbf8369b2a37d4f78	-0.009478946317962075
245	0xbfa662225f5b538f	-0.043717455044009694
246	0x3fb90f72d964f868	0.09789197738152355
247	0x3fbea8c1b8b8e497	0.11976252326793922
248	0xbfa46b3aeab2cc38	-0.03988060107203534
249	0x3fa5be1c4febbb34	0.04246605372997295
250	0x3f9e284e3274b1ee	0.029450628118114545
251	0x3fb6e603994286b4	0.08944723598190302
252	0x3fb84d90eea49b2f	0.0949335653900618
253	0xbfb090211cd3d820	-0.06469923929020682
254	0xbfaa85b4ac0366b1	-0.05180134391566805
255	0x3fbe952eb21253c4	0.11946384284449524
